model/mon_modele.tflite (tflite, 6824 bytes, 6 tensors)

sequential/dense_2/MatMul f4 [5, 32]
000000 06 24 17 bf 79 bd c3 3e 26 e7 c7 bd 10 50 13 bf
       -0.5903934 0.38230494 -0.09760885 -0.5754404
000010 3a 48 eb 3e 79 d7 b8 be e5 f5 d5 3e 02 fc 0d bf
       0.45953542 -0.36101893 0.41789165 -0.5546266
000020 9d c5 da be 58 47 a7 3e fb fc 57 3e 5d 61 05 bf
       -0.42728892 0.32671618 0.21092598 -0.5210169
000030 86 a3 aa bd 70 1c e9 3e 4b 94 79 3e be 12 26 3d
       -0.08331971 0.4552951 0.24372976 0.040545218
000040 33 34 8c 3e 6a 0c 5e 3e 31 c7 e0 be 95 70 a9 3e
       0.27383575 0.21684423 -0.4390197 0.33093706
000050 76 69 c4 3e b9 cd da 3d bd 60 2f 3e e2 dd 04 3f
       0.3836171 0.1068377 0.17126746 0.51901066
000060 7d be 56 bf e2 3b e8 3d 6a 76 4e bd 0b 73 26 bf
       -0.8388441 0.11339547 -0.050405897 -0.6501929
000070 31 81 3a bd 0c 52 24 bf 06 1a 3f bf 93 07 a9 3e
       -0.045533363 -0.64187694 -0.74649084 0.3301359
000080 f8 c6 4f be 10 f3 f8 3e 5f a1 a2 be ce b4 d4 be
       -0.20290744 0.48622942 -0.3176374 -0.41544193
000090 de c3 b6 be 79 1f f5 be cf ee e1 be d5 24 27 3f
       -0.3569631 -0.47875574 -0.4412751 0.65290576
0000a0 95 7f 17 3f eb 9b 36 bf 1e 14 b2 bd 07 f3 33 bf
       0.5917905 -0.7133166 -0.08695243 -0.70292705
0000b0 67 fa 9f 3e da 99 1d bf d4 5b a8 be 5e 65 19 3e
       0.3124573 -0.61562884 -0.3288256 0.14980075
0000c0 cb c5 11 bf 7c c9 28 bf 36 20 d3 3e af 7a 4f bf
       -0.56942433 -0.6593244 0.41235512 -0.81046575
0000d0 eb b8 a4 be 74 07 43 be 06 85 34 3f a0 87 d0 3e
       -0.3217233 -0.19045812 0.7051548 0.40728474
0000e0 7d 68 e8 bd 31 ba 0d 3f 05 12 9b be 2d 05 5c be
       -0.113480546 0.5536223 -0.30287185 -0.2148635
0000f0 f7 76 7e 3e 0c 17 02 be 6a 84 6c 3e 57 45 9a 3d
       0.24850069 -0.12704104 0.23097387 0.07532757
000100 58 79 b6 be f2 0b 55 bd 82 7f 9f 3e db 69 87 be
       -0.35639453 -0.052013345 0.31151968 -0.2644795
000110 0b ce 03 3f 64 fe 05 3f 47 fd e1 be ec f0 29 3e
       0.5148627 0.52341294 -0.44138548 0.1659581
000120 92 62 6f be 88 1b 38 be b0 87 ee 3e ee 1e d8 3e
       -0.23377445 -0.17979252 0.46587896 0.42211097
000130 2b 48 bc be 40 52 d2 3e 40 4f a3 3e 8e ca 25 bf
       -0.3677381 0.41078377 0.318964 -0.647622
000140 9b a4 1e bf 73 7d 6e 3e fc 85 03 bf 34 14 d6 3d
       -0.6196992 0.23290043 -0.5137632 0.10453072
000150 fc 7d fa be 52 e5 c2 3e 52 82 ca 3e 1f fa e2 be
       -0.48924243 0.38065583 0.39552552 -0.44331452
000160 b2 0e 89 be 99 f9 e7 3e 3e b6 58 bf 2c be 19 bf
       -0.26769024 0.45307615 -0.8465308 -0.60055804
000170 8f 30 63 be 13 8b 8e bd 13 bd b2 3e 35 9d b6 3e
       -0.22186492 -0.0696012 0.34909877 0.35666814
000180 61 eb 39 3d f3 cb 9e bd e2 4a b8 3e 9b 3f a0 3e
       0.04539049 -0.07753744 0.3599463 0.31298527
000190 7f 4d 2e bf 78 36 a2 3e d2 94 8c bf 44 9a de be
       -0.68087 0.3168218 -1.0982916 -0.4347707
0001a0 be 0e 92 be 7e 25 5f be c7 2d 2f bf 4d ba 86 be
       -0.28526872 -0.21791646 -0.68429226 -0.2631401
0001b0 92 ce ab 3e 2d 5d 65 3e 00 48 a1 be ed ca 66 be
       0.33556038 0.22398825 -0.31500244 -0.22538348
0001c0 64 55 99 3d 19 a6 e1 3d 56 5a c2 3e b3 ec 5e bd
       0.0748699 0.11018009 0.37959546 -0.054424953
0001d0 16 41 86 be f1 6b 20 bf 2a 49 3c bf b2 f7 30 be
       -0.26221532 -0.62664706 -0.7354914 -0.17281988
0001e0 1e 6b c7 3e 0f 56 fd be f3 33 ac bc 05 4d 4d be
       0.3894891 -0.4947972 -0.021020865 -0.20048912
0001f0 d6 c8 d7 3e 7e e0 cc 3e d7 74 17 be d1 d7 ec 3e
       0.42145413 0.40015024 -0.14790665 0.46258405
000200 f0 66 3d 3f d2 9c 18 bf d7 b0 5d bf b5 be c0 3c
       0.73985195 -0.5961429 -0.8659796 0.023528436
000210 26 09 22 be fd f5 07 bf b4 54 87 3f 8d 36 94 be
       -0.15823802 -0.53109723 1.0572724 -0.2894787
000220 55 88 81 3e d4 2d b1 bd 08 a8 43 3e 37 86 79 be
       0.25299326 -0.08651319 0.19107068 -0.24367605
000230 b6 f9 25 3e 7e e4 1d bf 60 cb dd be 23 1c 39 bf
       0.16208538 -0.61676776 -0.43319225 -0.7230856
000240 e4 d7 cb bc 06 72 3c 3f f8 b6 0a 3e 92 04 4d bf
       -0.024883218 0.73611486 0.1354636 -0.800851
000250 06 b0 38 bf d5 56 6b 3e e9 77 38 bf 92 59 5e bf
       -0.7214359 0.22982343 -0.7205797 -0.86855423
000260 b7 57 63 3e aa 7a 38 bf 3c 68 c5 be da 79 ff 3e
       0.2220143 -0.7206217 -0.38556087 0.49897653
000270 37 79 74 bf d2 24 a5 3e 96 ee 92 bd 09 bc 7e bf
       -0.9549746 0.32254654 -0.07174413 -0.9950567

sequential/dense_1/BiasAdd/ReadVariableOp f4 [32]
000000 92 6c 61 3e 34 ea e4 3d 79 23 7c be 9c 4b bd bd
       0.22014073 0.11177483 -0.24622907 -0.09242937
000010 b7 f8 4a 3e ff 81 dc 3d ae 5d f5 3e 68 cf 22 bc
       0.1982144 0.10766982 0.47923034 -0.009937145
000020 86 ff 7a 3e ab 7c 1f 3e b7 90 8b 3d dd 10 0f 3e
       0.24511537 0.15574901 0.068147115 0.13971277
000030 b1 e2 1a bd 8c a1 1a 3e 8f 5d 30 3e 0a 21 b0 bb
       -0.037813846 0.15100688 0.1722319 -0.0053750323
000040 40 8a 9e 3d e9 ef 79 3e dc 74 87 3c 76 08 47 3e
       0.07741213 0.24407925 0.016535215 0.19436821
000050 14 8d c9 3d 11 37 5a 3e 29 0e 47 3e f4 92 03 bd
       0.09841362 0.21310069 0.19438995 -0.032122567
000060 af 38 0b be 3c c1 d4 3c a2 69 ad bc c9 73 62 3e
       -0.13595842 0.025971048 -0.021168534 0.22114481
000070 1e 1e 8c be bc d0 33 bd 30 b2 37 3e 91 8a 63 be
       -0.27366728 -0.043900236 0.17939067 -0.22220828

sequential/dense_2/BiasAdd/ReadVariableOp f4 [5]
000000 be e7 6d bd f4 d8 1e 3d a4 cb 8b 3d a2 a6 82 be
       -0.058082335 0.03878112 0.06825951 -0.25517756
000010 f8 e8 68 3e
       0.2274512

sequential/dense/BiasAdd/ReadVariableOp f4 [64]
000000 cd 2c 43 bc cd 59 ae bd a4 d5 d3 bb 44 69 03 3e
       -0.011912537 -0.08513222 -0.006464677 0.12833124
000010 9d ae b6 3d 87 a1 72 3c f5 4a c4 3e 7c aa 6e bc
       0.089200236 0.014809019 0.38338438 -0.014567014
000020 c4 02 95 3e 57 a8 c1 3e b9 2e e9 bc 3c 53 00 3b
       0.29103673 0.37823746 -0.028464662 0.0019580862
000030 14 d7 c7 3d 2c d8 39 3e d9 8c d8 3d 83 b9 a5 3d
       0.0975782 0.1814887 0.105737396 0.08092024
000040 2e b6 d0 3e 8f 0b 0a 3e be f5 a0 bd 23 7e cf 3c
       0.40763992 0.13480972 -0.078593716 0.025328701
000050 38 3b 38 3b 84 41 c0 bd 8d 84 de 3e 44 47 49 be
       0.002811147 -0.09387496 0.43460503 -0.19656092
000060 5c c5 06 be 67 68 0b bc 6b fb 0b 3e 9f 04 d9 bc
       -0.13161224 -0.008508778 0.13670127 -0.026491461
000070 5f b4 12 3d 02 34 01 3e d9 b5 7f 3e de 38 3b 3e
       0.035816547 0.12617496 0.24971713 0.18283412
000080 d0 2e e4 bd be c0 7a 3e 92 59 a6 3c 0e e6 7a 3d
       -0.11141741 0.24487588 0.020306382 0.061254553
000090 4e 5b 8a bd c4 3a c4 bd ad f1 98 bd f7 13 16 3e
       -0.06755696 -0.09581521 -0.07467971 0.14656053
0000a0 7d b9 7c 3e 93 e0 c1 bb 1d aa 92 3c 98 b7 81 be
       0.24680133 -0.005916664 0.017903382 -0.25335383
0000b0 4c d9 91 bd d4 64 66 3e ee 49 b5 3d ba 0a 55 3e
       -0.07121524 0.224994 0.088519916 0.20804873
0000c0 dc b9 13 bd 16 9b e1 3d a0 38 26 3e 56 4a 31 3e
       -0.03606592 0.110159084 0.16232538 0.17313513
0000d0 a1 b6 99 3e 1f 7e 34 bc a5 52 9c bd de 63 82 3c
       0.30022147 -0.011016398 -0.07632951 0.015916761
0000e0 fb ae 36 bd 0e 79 a2 bc 18 e2 fb bd 0b 3f 13 3e
       -0.044600468 -0.019833114 -0.12298983 0.14379518
0000f0 cb 88 a5 bd 62 3f b2 bd c7 3d 15 bc 85 39 42 3e
       -0.08082732 -0.087034956 -0.009108967 0.18967254

sequential/dense/MatMul f4 [64, 6]
000000 cd c3 33 3d e9 a6 24 3e 62 45 4b be 9f c5 04 bf
       0.043887902 0.16079296 -0.19850686 -0.51864046
000010 ee 5f 6f 3e 81 cf 9d be d1 34 30 3e 39 12 83 bc
       0.23376438 -0.30822375 0.17207648 -0.0159999
000020 74 85 ca 3e 31 2c 29 be 82 79 00 be 0e ae cd bd
       0.39554942 -0.16520764 -0.12546352 -0.10042964
000030 ff 52 8f bc 86 0a dd be 95 5e 70 be 2e cd 50 bd
       -0.01749563 -0.4317209 -0.2347358 -0.050976925
000040 40 7e 65 3e ba 26 0a bf ec 35 4c be 31 86 84 3e
       0.22411442 -0.5396534 -0.19942445 0.2588363
000050 dd 53 12 bf c8 41 8f 3e f5 78 70 3e 2a ec 6e bc
       -0.57159215 0.27979875 0.23483641 -0.014582673
000060 ad 83 9c be 98 f3 64 be 7c d3 c2 be e6 9c 99 be
       -0.3056921 -0.22358549 -0.38051975 -0.30002517
000070 28 d5 53 bb 51 c4 73 bd 18 09 ca be cd e9 b9 be
       -0.0032323096 -0.059513394 -0.39460063 -0.36311188
000080 b2 e4 4e 3e 72 36 1c 3d 60 a8 eb 3d ab 51 b8 3e
       0.20204428 0.03813786 0.11506724 0.35999808
000090 d7 2a 32 3d 1e 46 dc bd 75 de 00 3f 23 2d a1 bd
       0.043497887 -0.10755561 0.5033944 -0.07869937
0000a0 0a 8c 14 3e 2a 7c 68 bd d4 55 b0 3e f8 10 e5 3c
       0.14506546 -0.056759037 0.34440482 0.027962193
0000b0 1b a5 46 bc 04 94 bf bc 5a f5 52 be df 61 b9 be
       -0.012124325 -0.023386009 -0.20601407 -0.36207482
0000c0 fd fd ab 3d 74 54 55 be a0 c6 aa 3e c6 e5 37 3e
       0.08398054 -0.20832998 0.33354664 0.17958745
0000d0 40 83 15 be 6e b1 f5 bd c3 f2 e9 3d cc ad ba bd
       -0.14600849 -0.11996733 0.11423256 -0.091151804
0000e0 ff e4 e0 3c 32 6c 66 be 68 ea ac 3e 91 1c a5 3c
       0.027452944 -0.2250221 0.33772588 0.020155223
0000f0 3d 71 e1 3e 23 26 a9 be 3e d2 b5 bd fd 43 92 3e
       0.44031706 -0.33036909 -0.08877991 0.28567496
000100 f7 1e f4 3d c4 0a 12 3f a8 4f bd be 22 29 ae be
       0.119199686 0.5704768 -0.36974835 -0.34015757
000110 0a 58 6f 3e 86 08 ec 3e 6b 65 d3 be 8b f7 4a be
       0.23373428 0.46100253 -0.41288313 -0.19820993
000120 b0 4c 83 be a1 d1 2b be 1d e9 ab bc fe ec 38 be
       -0.25644445 -0.16779186 -0.02098518 -0.18059155
000130 19 87 60 be 7b fa 82 3e 32 8a 6e 3e 61 32 5e be
       -0.21926536 0.25581726 0.23294905 -0.21698906
000140 38 57 ee 3e d0 05 7c be b4 12 f0 3d 3d 9e c1 3c
       0.46550918 -0.24611592 0.11722317 0.023635024
000150 2a 1f 96 be b8 a4 c8 be f6 75 8c bd 46 02 41 be
       -0.2932065 -0.3918817 -0.06858437 -0.18848523
000160 a3 59 db bd 11 86 fb 3e bb 0a 02 bf 7e 27 81 3e
       -0.10710456 0.49125722 -0.50797623 0.25225443
000170 a1 1d 3d 3e 03 ec 85 3e 0a 19 52 be ef 5e 19 be
       0.18468334 0.26156625 -0.20517364 -0.1497762
000180 fd ab f1 3d aa 12 08 be 3b 08 c4 3d d1 7a 7f be
       0.11800382 -0.1328837 0.09571882 -0.24949194
000190 26 6d fa bd 13 ed 6d 3e 29 4a 1e be 25 94 34 3e
       -0.1222785 0.23234968 -0.15457977 0.17634638
0001a0 6a 8d a0 3e d2 7b 16 3d 86 82 b4 3e 30 be 12 be
       0.3135789 0.036739178 0.3525583 -0.14330363
0001b0 6c b6 c7 bb af be 44 be 86 b6 87 3e c1 e4 ff be
       -0.0060947444 -0.19213365 0.26506442 -0.49979213
0001c0 e5 f6 e0 be 83 3a fc 3c a4 dc 49 3d f4 37 d7 3e
       -0.43938366 0.03078962 0.049282685 0.42034876
0001d0 b0 d8 16 be 1e 34 31 3d 2f 3b e6 bc 26 80 22 bf
       -0.14731097 0.043262593 -0.028104393 -0.6347679
0001e0 a2 af 99 3e b8 e5 cd 3e 9f dd 18 be 0f 06 5d 3e
       0.3001681 0.40214324 -0.14928292 0.21584342
0001f0 68 f1 a2 3c 7a c2 c6 be 8b 38 25 3e 55 d6 61 3e
       0.019890502 -0.3882025 0.1613485 0.22054417
000200 c9 48 1a 3e 84 38 be be 06 38 01 3e fc b3 f5 3e
       0.15066828 -0.37152493 0.12619027 0.4798888
000210 a3 0a 86 3e 16 95 bd 3e 97 13 68 3e 8b 32 d5 be
       0.2617999 0.37027806 0.22663723 -0.41640124
000220 9f 1d dd bd c5 89 bd 3c c7 c3 ff 3e 90 5e 02 be
       -0.107966654 0.023136983 0.49954054 -0.12731385
000230 41 1d db 3c bd d3 2d 3e 7b 72 66 3d 9b 24 af be
       0.026747348 0.16975303 0.05626152 -0.34207615
000240 4b b9 12 3e bb fa 25 bf 66 49 3f 3e 83 4c 8b 3e
       0.14328496 -0.6483571 0.18680343 0.2720681
000250 e3 5e d6 bd 9b 8c 33 bc fa 59 47 3e 4b 17 b5 bc
       -0.10467317 -0.010958816 0.19467917 -0.022105834
000260 0d f9 ac 3d 36 f4 5b 3e c1 ad 04 bf 13 a5 09 be
       0.0844594 0.21479878 -0.5182763 -0.13441877
000270 7d 18 ee 3e 31 3b e1 bd d3 dd a9 3e 22 7a 81 be
       0.46503058 -0.10997618 0.3317705 -0.25288492
000280 b7 45 87 bd 82 c2 fa bc 7a 84 87 3e b0 b6 3e 3e
       -0.06605094 -0.030610327 0.2646826 0.18624377
000290 f7 aa e6 bd ac 1d 4d be 52 a4 be 3e c3 02 d0 be
       -0.11263078 -0.2003085 0.3723474 -0.40627107
0002a0 a5 cd a3 be 3a 47 d1 be de 2b 18 bd 00 a9 9a be
       -0.31992832 -0.40874654 -0.03715121 -0.30207062
0002b0 f7 07 6b be 3e 2b 18 3e 7d e7 95 be 05 c5 64 3d
       -0.22952257 0.14860246 -0.29278174 0.055851955
0002c0 70 51 f7 3d f1 85 44 be ff 67 b9 be 98 5b 27 bd
       0.1207608 -0.1919172 -0.36212155 -0.040858835
0002d0 6a 1a b6 3e 84 5b 1f be 4b 84 79 3d be c1 5d be
       0.35567027 -0.15562254 0.06091718 -0.21655938
0002e0 b6 54 ae bd 18 13 10 bc df 89 0f 3e f3 ce a9 be
       -0.08512251 -0.008793615 0.14017437 -0.33165702
0002f0 39 fb d4 3e 4e b8 ef b8 6e 2b 8e 3d a6 91 a7 be
       0.41597918 -0.000114307375 0.06941877 -0.32728308
000300 87 2c dd 3e 6f 75 5d be 6c 2c a5 3e 18 9e 98 be
       0.43198034 -0.21626829 0.32260454 -0.29808116
000310 97 5d a1 3e 8f 51 61 3d 53 df 0d bf d3 91 37 bd
       0.31516716 0.05500942 -0.5541889 -0.044816803
000320 f0 01 97 be 31 07 64 be df be 63 bd 08 55 8d bc
       -0.29493666 -0.22268368 -0.05560195 -0.01725246
000330 63 78 61 3e a7 63 e7 bd 17 92 b0 be 44 78 a1 3e
       0.2201858 -0.11298304 -0.34486458 0.31537068
000340 e5 39 67 bd 8f f7 61 3e 8c 59 db be 66 26 29 bd
       -0.056451697 0.22067092 -0.42841756 -0.041296385
000350 65 84 ab bd 73 7f 56 3e e3 f1 84 3e d6 7c ca be
       -0.08374862 0.20947056 0.25965795 -0.39548367
000360 84 e4 c9 3d e8 89 d1 bd f3 57 4b be 1e 86 9e bc
       0.09858039 -0.10231382 -0.19857769 -0.019351061
000370 5f e1 78 3e 32 53 f6 bd 95 cb 9c 3e 97 65 1b 3e
       0.24304722 -0.12027587 0.3062407 0.15175472
000380 f0 5e d5 3e 57 f4 0b bc a2 a6 7f be 36 d8 e8 3e
       0.41673994 -0.008542142 -0.24965909 0.45477456
000390 5a ff da 3e d0 43 09 bf 24 9e 8d be d5 80 41 3e
       0.42772943 -0.536191 -0.27659714 0.18896802
0003a0 9f fe 95 bd cc 2b 50 3c 5a b1 3e 3e 47 b6 05 3e
       -0.07323956 0.0127057545 0.18622342 0.13057815
0003b0 d4 05 89 bd 02 27 a5 be 4a 36 a9 bd 4a d5 1a bf
       -0.06690565 -0.32256323 -0.08262308 -0.60481703
0003c0 f0 83 2f bf eb 38 72 3e 7a 91 13 be db ed 23 3e
       -0.68560696 0.23654525 -0.14410964 0.16008703
0003d0 cc d5 bf 3d 80 a6 11 3d 3e 0c 9d bd bd 5a 3f 3e
       0.093669504 0.035559177 -0.07668351 0.18686958
0003e0 03 f3 1e 3e 08 51 aa 3e e0 ee 9a be d2 4f 68 3d
       0.15522389 0.33264947 -0.30260372 0.056716748
0003f0 81 8e 14 3e 4e de 03 3f 6b 9f 05 3e b2 a1 c7 3e
       0.14507486 0.51511085 0.13049094 0.3899055

sequential/dense_1/MatMul i1 [32, 64] scale=0.0051268293 zero_point=0
000000 f1 07 0d d8 d0 28 51 ce 47 f9 1c ef 21 10 e4 f4
       -0.07690244 0.035887804 0.06664878 -0.20507318 -0.2460878 0.20507318 0.41527316 -0.25634146 0.36400488 -0.035887804 0.14355122 -0.087156095 0.16918537 0.08202927 -0.14355122 -0.06152195
000010 37 37 e6 c8 d4 fc 33 d8 be d7 18 c3 f1 28 4a 46
       0.2819756 0.2819756 -0.13329756 -0.28710243 -0.22558048 -0.020507317 0.2614683 -0.20507318 -0.33837074 -0.2102 0.1230439 -0.31273657 -0.07690244 0.20507318 0.37938535 0.35887805
000020 db f0 46 f6 1c d7 f1 24 f8 25 fd 33 06 18 2f 28
       -0.18969268 -0.08202927 0.35887805 -0.051268294 0.14355122 -0.2102 -0.07690244 0.18456586 -0.041014634 0.18969268 -0.015380488 0.2614683 0.030760976 0.1230439 0.24096097 0.20507318
000030 dd 2f c1 33 29 d8 20 b3 dc e0 b7 eb f4 e6 f7 c5
       -0.17943902 0.24096097 -0.32299024 0.2614683 0.2102 -0.20507318 0.16405854 -0.39476585 -0.18456586 -0.16405854 -0.37425855 -0.107663415 -0.06152195 -0.13329756 -0.046141464 -0.30248293
000040 0e db 26 fd da 30 ed 11 fc 09 fd 05 21 06 36 cd
       0.07177561 -0.18969268 0.19481951 -0.015380488 -0.19481951 0.2460878 -0.097409755 0.087156095 -0.020507317 0.046141464 -0.015380488 0.025634147 0.16918537 0.030760976 0.2768488 -0.2614683
000050 fb f3 f1 36 2f 2e e7 20 24 42 00 2b 3e 2e 1c 00
       -0.025634147 -0.06664878 -0.07690244 0.2768488 0.24096097 0.23583415 -0.12817073 0.16405854 0.18456586 0.33837074 0.0 0.22045366 0.3178634 0.23583415 0.14355122 0.0
000060 15 e7 d4 01 1a 1b 22 39 ec e5 10 cd 50 e2 d9 e3
       0.107663415 -0.12817073 -0.22558048 0.0051268293 0.13329756 0.1384244 0.17431219 0.29222926 -0.10253659 -0.1384244 0.08202927 -0.2614683 0.41014636 -0.15380488 -0.19994634 -0.14867805
000070 12 30 f0 ed f9 20 16 16 1d 0d e4 30 e5 27 10 2f
       0.09228293 0.2460878 -0.08202927 -0.097409755 -0.035887804 0.16405854 0.11279024 0.11279024 0.14867805 0.06664878 -0.14355122 0.2460878 -0.1384244 0.19994634 0.08202927 0.24096097
000080 5f 50 06 2f 14 18 16 d7 1c 12 e4 29 16 0a d3 56
       0.48704877 0.41014636 0.030760976 0.24096097 0.10253659 0.1230439 0.11279024 -0.2102 0.14355122 0.09228293 -0.14355122 0.2102 0.11279024 0.051268294 -0.23070732 0.44090733
000090 e3 39 58 df e3 2e db 2f 14 0d 21 1f e7 f6 e2 2c
       -0.14867805 0.29222926 0.45116097 -0.16918537 -0.14867805 0.23583415 -0.18969268 0.24096097 0.10253659 0.06664878 0.16918537 0.1589317 -0.12817073 -0.051268294 -0.15380488 0.22558048
0000a0 46 0b eb 31 24 ef 0d 06 0b 11 02 41 fa f1 d5 fe
       0.35887805 0.05639512 -0.107663415 0.25121462 0.18456586 -0.087156095 0.06664878 0.030760976 0.05639512 0.087156095 0.0102536585 0.3332439 -0.030760976 -0.07690244 -0.22045366 -0.0102536585
0000b0 05 d3 e9 1b 15 4a 3d 25 32 3f 53 30 1e 4c 1d 40
       0.025634147 -0.23070732 -0.117917076 0.1384244 0.107663415 0.37938535 0.31273657 0.18969268 0.25634146 0.32299024 0.42552683 0.2460878 0.15380488 0.38963902 0.14867805 0.32811707
0000c0 21 33 e5 13 10 06 1d c7 f9 f4 3e f8 1f ed 1e 23
       0.16918537 0.2614683 -0.1384244 0.097409755 0.08202927 0.030760976 0.14867805 -0.29222926 -0.035887804 -0.06152195 0.3178634 -0.041014634 0.1589317 -0.097409755 0.15380488 0.17943902
0000d0 f9 0e 2a f3 ef b8 10 2a 00 dc 0f 15 cc 2c 2b 39
       -0.035887804 0.07177561 0.21532683 -0.06664878 -0.087156095 -0.3691317 0.08202927 0.21532683 0.0 -0.18456586 0.07690244 0.107663415 -0.26659513 0.22558048 0.22045366 0.29222926
0000e0 22 07 4e e3 05 f0 2a 29 35 e5 33 31 f3 e1 3a 33
       0.17431219 0.035887804 0.3998927 -0.14867805 0.025634147 -0.08202927 0.21532683 0.2102 0.27172196 -0.1384244 0.2614683 0.25121462 -0.06664878 -0.1589317 0.2973561 0.2614683
0000f0 c5 cd 03 38 fb 18 0e bc 12 eb fc 30 16 ff de 30
       -0.30248293 -0.2614683 0.015380488 0.28710243 -0.025634147 0.1230439 0.07177561 -0.34862438 0.09228293 -0.107663415 -0.020507317 0.2460878 0.11279024 -0.0051268293 -0.17431219 0.2460878
